model.tflite (tflite, 68732 bytes, 11 tensors)

arith.constant f4 [1, 8]
0.077232584 0.23781103 0.024356002 0.1934186 -0.11252376 -0.19142771 -0.16573189 -0.12992316
00000000: 1e2c 9e3d bc84 733e 3d86 c73c 870f 463e
00000010: db72 e6bd a005 44be 9fb5 29be 940a 05be

arith.constant1 f4 [8, 16]
-0.16260456 0.502141 0.054515492 -0.15067628 -0.8734812 0.3692175 0.18647964 -0.16951491
-0.6511635 0.1903861 -0.3520575 -0.23822004 -0.036967393 0.24622999 -0.96855927 -0.67907083
-0.09641981 -0.064137876 0.025077095 -0.27773044 -0.43081528 0.04858308 0.13006431 0.28915375
-0.33926022 -0.020577656 -0.20433709 0.07260742 -0.21668218 0.057799034 -0.3144038 -0.08710589
-0.06841403 0.57010144 -0.11145563 0.16391304 0.18179785 -0.2278649 -0.09448874 -0.0064170747
-0.019556876 -0.10118489 -0.051603895 -0.11805474 -1.8258718 -0.12476007 0.076801136 -0.11850115
-0.3324272 0.6145969 0.19064848 -0.99198085 -1.3587186 0.28789327 0.35116765 -0.66484934
-0.8451631 0.109164335 -1.8801298 0.29013687 -0.16027716 0.15349299 -2.6431322 -0.7402881
-2.3587692 -0.4311998 -2.8257117 1.2392445 0.61966676 -1.5389041 -1.8290172 -1.6876124
0.40787783 -0.8283963 0.60911185 -1.0661055 -1.3720675 -1.2418698 0.5671018 -0.5154149
-0.5855886 -0.43576226 -4.390143 0.018339325 -0.13092846 -1.1944036 -1.6889185 -0.6277337
-0.07430299 -0.46310887 -0.02510579 -3.2072568 -2.5407312 -2.1211486 -0.052698128 0.26593053
0.21603057 -0.5009502 -0.6498027 -0.138797 0.030610172 -0.8035422 -0.3918543 -0.15512554
-0.22802301 -1.0903673 -0.0041258996 -0.34142253 -0.41906545 -1.0943612 -0.0010250187 -0.0062560346
-0.09993194 0.30036667 0.12506734 0.33155757 0.7117919 0.0664843 0.17489275 0.013946179
-0.25749582 0.05342206 -0.37350968 0.24293095 0.07454564 0.17402188 0.5552519 -0.08801319
00000000: cf81 26be 508c 003f a34b 5f3d e24a 1abe
00000010: 779c 5fbf 130a bd3e 85f4 3e3e 5195 2dbe
00000020: a7b2 26bf 93f4 423e e140 b4be f4ef 73be
00000030: 1f6b 17bd b723 7c3e 80f3 77bf 96d7 2dbf
00000040: c077 c5bd b85a 83bd 7b6e cd3c af32 8ebe
00000050: d293 dcbe 0dff 463d 942f 053e f60b 943e
00000060: 84b3 adbe 7992 a8bc be3d 51be 33b3 943d
00000070: efe1 5dbe aebe 6c3d 89f9 a0be 9364 b2bd
00000080: a81c 8cbd 2bf2 113f d942 e4bd d2d8 273e
00000090: 3729 3a3e 6b55 69be 5083 c1bd 5346 d2bb
000000a0: be35 a0bc 063a cfbd 9b5e 53bd afc6 f1bd
000000b0: 2bb6 e9bf 3582 ffbd ea49 9d3d bbb0 f2bd
000000c0: e633 aabe 3956 1d3f 5b39 433e 75f2 7dbf
000000d0: 7eea adbf bf66 933e 3fcc b33e 9133 2abf
000000e0: 9c5c 58bf 8d91 df3d 18a8 f0bf d28c 943e
000000f0: b21f 24be 442d 1d3e 1429 29c0 8583 3dbf
00000100: 13f6 16c0 38c6 dcbe 76d8 34c0 909f 9e3f
00000110: 7ba2 1e3f cffa c4bf 3c1d eabf af03 d8bf
00000120: 5dd5 d03e c811 54bf c1ee 1b3f 2576 88bf
00000130: e89f afbf 97f5 9ebf 952d 113f 3bf2 03bf
00000140: 22e9 15bf 3b1c dfbe 0d7c 8cc0 5a3c 963c
00000150: 1c12 06be 38e2 98bf 7b2e d8bf 28b3 20bf
00000160: 2b2c 98bd 9b1c edbe a8aa cdbc b243 4dc0
00000170: 579b 22c0 e6c0 07c0 fed9 57bd 0c28 883e
00000180: 1e37 5d3e 463e 00bf 7859 26bf cd20 0ebe
00000190: 2fc2 fa3c f1b4 4dbf 20a1 c8be 3bd9 1ebe
000001a0: dd7e 69be 2891 8bbf 8e32 87bb efce aebe
000001b0: bf8f d6be 0714 8cbf ec59 86ba 6cff ccbb
000001c0: 1ea9 ccbd a9c9 993e a711 003e eac1 a93e
000001d0: fe37 363f ec28 883d 1617 333e 847e 643c
000001e0: 7ed6 83be 17d1 5a3d a93c bfbe e4c2 783e
000001f0: 62ab 983d cb32 323e fd24 0e3f 4240 b4bd

arith.constant2 f4 [16, 32]
0.80131304 -0.027485525 0.7896742 0.39737505 -0.8061233 -0.5291516 0.3589542 0.47267398
0.482852 -0.7081296 0.48553666 0.5499407 -1.2732275 -0.81997424 -0.54728323 -0.38343272
-0.60492325 0.26327077 -0.21455799 0.52971756 -0.8644247 0.3216123 -0.6913669 0.40123624
0.24957454 -1.1222323 0.27902696 -1.474594 0.21113458 0.5363384 0.34967577 0.37456205
-0.0023503564 -0.23935145 -0.9189791 -0.3723908 -0.1294932 -0.30716822 -0.09672371 -0.16344996
-0.40473166 -0.18536521 -0.26568976 -1.5732708 -0.006214926 -0.12265721 -0.1281401 -0.0773801
-0.6608047 -0.6250604 -0.012895221 -0.5198653 0.020212129 -1.1086366 -0.29288092 -0.33571807
-0.24734218 -0.24092728 -0.34562778 0.09163855 -0.23661824 -0.17732129 -0.44747856 0.19699773
-0.26083383 0.11786308 -0.10884864 -0.18714741 -0.008403191 0.20741671 -0.057235 -0.06330924
0.09379343 -0.020163761 -0.42272547 -0.0844254 0.14963607 0.15384398 -0.015115174 0.187149
0.19763038 0.10729836 0.11138516 -0.09449032 0.35832494 -0.7258494 0.24612574 -0.13744387
-0.48432502 0.009196793 -0.070875205 0.28578946 -0.7836791 -0.26702523 -0.1776309 -0.07288203
0.24515669 -0.71721584 0.023143845 -0.53885555 -0.9187352 -0.16859429 -0.086771876 -0.1409229
0.07023038 0.011549015 -0.14284213 -0.39540225 -0.3010471 -0.43721867 -0.4911148 -0.13718085
-0.013553659 -0.31940222 -0.42000115 -0.3289574 0.4724337 -0.36192507 -0.16061772 -0.043334275
-0.26209015 -0.3636269 -0.36844018 -0.40832105 -0.39578745 0.17044309 -0.27622843 -0.03357867
-0.023682658 0.3964855 0.19425172 0.11216749 -0.8164343 -0.42799002 0.17761184 -0.027842386
0.029496996 -0.5450663 0.08884308 0.012764863 -0.4288514 -0.7121059 -0.7854686 -0.51114273
-0.34512225 -0.120719746 -0.41295815 0.1414541 0.39849466 0.007651725 -0.29959977 -0.20214711
0.23001371 -0.062130034 0.024388399 0.15985174 -0.012828864 -0.09693974 0.0044847247 0.09052674
0.046011686 -0.34504387 0.1697282 -0.036831267 0.4027402 0.08498882 -0.2463258 -0.044946585
-0.04440129 0.17345242 0.09845136 -0.14701775 0.3104907 -0.16295524 -0.076680884 -0.30373752
-0.15273398 -0.28922042 0.1957793 -0.24888621 0.038159102 -0.100714274 -0.026980082 -0.47172138
-0.05823619 0.03948552 0.08272638 0.2491726 -0.3291797 -0.31323865 -0.94029784 0.06297097
-0.54840225 -0.059327967 0.097486645 -0.33627242 0.25448036 0.16556723 -0.3872873 0.08089868
-0.024317566 0.108856715 0.10587156 0.09230736 0.1848513 0.23273475 0.08531216 0.0033820176
-0.05664225 0.08937919 0.09675331 0.050135087 0.2127282 -0.13473745 0.11854243 -0.13188133
-0.20505615 0.105824344 -1.0608453 0.5167678 -0.5007086 -0.049632344 -0.08390808 -0.09552863
-1.1808999 0.2041039 -0.3017859 -1.0430361 0.43150982 0.46662435 -0.60636127 -1.2343295
-2.4714165 0.2630719 -1.0483032 -1.1720922 0.679967 0.37360796 0.32838148 0.20840172
0.16236007 -0.71527886 0.3818315 -1.4765495 1.0009631 -0.3548023 0.087359935 -0.3889853
-1.1383674 0.32701054 -0.7152197 0.5506279 -0.660325 -1.5737605 -1.0541078 -1.4493489
00000000: da22 4d3f 5329 e1bc 1728 4a3f be74 cb3e
00000010: 195e 4ebf 7b76 07bf d8c8 b73e 5302 f23e
00000020: 6138 f73e fb47 35bf 4398 f83e eac8 0c3f
00000030: 1ef9 a2bf d5e9 51bf c11a 0cbf 4b51 c4be
00000040: 40dc 1abf 6dcb 863e 17b5 5bbe 929b 073f
00000050: f04a 5dbf 5eaa a43e 6cfd 30bf d66e cd3e
00000060: 7890 7f3e 4fa5 8fbf 9fdc 8e3e 7fbf bcbf
00000070: aa33 583e 794d 093f b408 b33e 99c6 bf3e
00000080: 7008 1abb 8c18 75be 3742 6bbf 02aa bebe
00000090: de99 04be 2745 9dbe 1517 c6bd 6d5f 27be
000000a0: fd38 cfbe 61d0 3dbe 7d08 88be f060 c9bf
000000b0: 94a6 cbbb b433 fbbd 2937 03be 7579 9ebd
000000c0: 7f2a 29bf f503 20bf 7a46 53bc e415 05bf
000000d0: e893 a53c cee7 8dbf 7df4 95be 3de3 abbe
000000e0: 4547 7dbe a4b5 76be 20f6 b0be feac bb3d
000000f0: 0d4c 72be b693 35be e91b e5be c6b9 493e
00000100: 038c 85be 3362 f13d 09ec debd 92a3 3fbe
00000110: 8aad 09bc 0c65 543e 3f6f 6abd 46a8 81bd
00000120: c516 c03d 792e a5bc 796f d8be 39e7 acbd
00000130: 333a 193e 4789 1d3e a3a5 77bc fda3 3f3e
00000140: 9e5f 4a3e 3ebf db3d e71d e43d 2484 c1bd
00000150: 5e76 b73e 44d1 39bf 6308 7c3e 16be 0cbe
00000160: 73f9 f7be 25ae 163c 0527 91bd ff52 923e
00000170: 329f 48bf 88b7 88be e0e4 35be 2c43 95bd
00000180: 5b0a 7b3e 759b 37bf 2998 bd3c 70f2 09bf
00000190: 3b32 6bbf fba3 2cbe 74b5 b1bd 184e 10be
000001a0: f2d4 8f3d 1438 3d3c 3545 12be 2a72 cabe
000001b0: d822 9abe 20db dfbe 6673 fbbe 2379 0cbe
000001c0: 2b10 5ebc b088 a3be 640a d7be 1b6d a8be
000001d0: d4e2 f13e 3e4e b9be f978 24be 487f 31bd
000001e0: ae30 86be 4e2d babe 31a4 bcbe 750f d1be
000001f0: a7a4 cabe a288 2e3e d06d 8dbe ca89 09bd
00000200: 2202 c2bc 2600 cb3e ece9 463e 12b8 e53d
00000210: d701 51bf 8221 dbbe e1df 353e b715 e4bc
00000220: afa3 f13c 7789 0bbf 5cf3 b53d b723 513c
00000230: 6992 dbbe 924c 36bf 7814 49bf 40da 02bf
00000240: ddb3 b0be ea3b f7bd 406f d3be 58d9 103e
00000250: 7e07 cc3e 52bb fa3b 2465 99be a7ff 4ebe
00000260: b788 6b3e 107c 7ebd 2eca c73c 2db0 233e
00000270: 2830 52bc 5888 c6bd 99f4 923b 1566 b93d
00000280: c076 3c3d 97a9 b0be 3bcd 2d3e 62dc 16bd
00000290: f733 ce3e 9e0e ae3d d53c 7cbe e919 38bd
000002a0: 21de 35bd 839d 313e dea0 c93d d28b 16be
000002b0: a3f8 9e3e bddd 26be de0a 9dbd 7c83 9bbe
000002c0: 4c66 1cbe b314 94be 5e7a 483e 07dc 7ebe
000002d0: b84c 1c3d 4943 cebd 5505 ddbc 7785 f1be
000002e0: 1289 6ebd 92bb 213d 736c a93d 1a27 7f3e
000002f0: 3e8a a8be d160 a0be 5cb7 70bf edf6 803d
00000300: 1764 0cbf e201 73bd 14a7 c73d e62b acbe
00000310: 404b 823e 758a 293e 854a c6be 35ae a53d
00000320: a235 c7bc 45f0 de3d 30d3 d83d a40b bd3d
00000330: a949 3d3e 0552 6e3e 24b8 ae3d d7a4 5d3b
00000340: b401 68bd 700c b73d 9926 c63d 735a 4d3d
00000350: 6cd5 593e 9df8 09be 60c6 f23d e60b 07be
00000360: 3dfa 51be 6fba d83d c7c9 87bf e54a 043f
00000370: 702e 00bf 494b 4bbd 00d8 abbd 84a4 c3bd
00000380: ba27 97bf 9d00 513e ae83 9abe 3582 85bf
00000390: dbee dc3e 63e9 ee3e 7e3a 1bbf 82fe 9dbf
000003a0: b02b 1ec0 5cb1 863e cd2e 86bf 1e07 96bf
000003b0: 5112 2e3f 8b49 bf3e 9e21 a83e 4367 553e
000003c0: b841 263e 841c 37bf 6b7f c33e 93ff bcbf
000003d0: 8f1f 803f a6a8 b5be c4e9 b23d 1529 c7be
000003e0: 06b6 91bf ed6d a73e a318 37bf f3f5 0c3f
000003f0: 0f0b 29bf fc70 c9bf 01ed 86bf 4484 b9bf

arith.constant3 f4 [32, 64]
0.47337106 0.7918856 0.40357882 0.6201911 -0.98763907 0.9131417 -0.04993059 -0.041906957
0.36850956 0.62952423 0.28276974 0.7649679 -1.2092538 1.591458 1.6887971 -0.712168
-1.2899768 1.5069758 0.42299438 -1.338366 -2.27126 -2.5383089 -1.591052 0.5999468
-2.972801 -2.3854108 0.70014024 -0.09243872 -1.7409102 0.31222737 0.12811749 -2.761537
0.9051887 0.68904245 0.61219794 1.0151566 -0.65500003 -2.072893 -1.8307716 -0.6086995
0.7069137 -2.6130269 -1.4182886 -1.6646188 -1.5968314 0.71419626 0.6609841 -2.1894207
1.7084006 0.40739265 0.54218245 -1.7007282 -0.12694697 0.315984 1.3997593 0.25157785
1.4884665 -1.4531698 -1.4523507 -0.32073605 1.468672 0.29962644 -1.786482 -1.9446574
-1.0475826 -1.0768709 -0.110383905 -0.8820191 0.43184614 -0.6644078 0.16923198 -0.6427379
-1.2127459 -0.41214514 -1.1093401 -0.5643579 0.5871439 -1.1782186 -0.3388209 0.3386149
0.50243413 -0.4703073 -0.41696304 0.98855287 0.1507448 0.60963064 0.8230668 -0.5820306
1.5533676 0.1363562 -0.5958343 -0.47614074 0.52986836 -0.67361313 -0.238801 0.64691246
-0.17452845 -0.4231513 -0.42578238 -0.6838447 -0.06819781 0.5912163 0.26904824 -0.7634476
-0.94672436 0.7400674 1.1122019 0.15302896 0.2428066 -0.4417272 -0.47728392 0.037079077
-0.88041186 -0.15228602 -1.4895456 0.6235756 -0.24232833 -0.008754277 -0.6185304 0.08492596
-0.22732948 0.42543793 0.52576125 -0.20828144 -0.4239507 -0.4170486 0.5263818 1.2560698
1.8025911 0.21714935 -1.1885515 0.25383 -0.14887775 0.4598299 0.0334571 0.6642577
0.8869961 -0.5270859 1.8666586 1.1015457 -0.8218152 0.331015 0.8347858 -0.71219796
-0.61090714 0.9425326 0.9404076 -2.3460283 -1.1137162 -2.5591779 -1.2982396 0.3972325
-3.071758 -1.0099075 0.6943393 -1.3119448 -0.6198012 0.7146794 -0.9138451 -1.9222654
1.4259982 1.2768327 1.1399732 0.7233458 -0.7117497 -0.6711281 -0.9993189 0.8819056
0.94719166 -0.29870278 -1.9190204 -1.1454608 -1.0727524 0.6942669 0.730134 -0.88178986
0.9323758 0.71187127 1.0411189 -0.8847956 0.3656004 0.7231165 1.1491756 0.77055025
0.30470183 -0.82417005 -1.446761 -0.8289635 0.7802296 0.67573714 -1.2725718 -2.672012
1.0348741 1.5992188 0.32926625 0.6274334 -0.9608242 0.90786326 0.09733319 0.7026615
0.63587755 -1.1442966 -0.2858506 0.514013 -0.9013705 0.42661846 1.0046188 -0.2757268
-1.906399 0.7452157 -0.27542546 -1.6418234 -1.4961543 -1.4612076 -2.1594064 -0.09951428
-2.378942 -1.7487851 1.6845558 1.4492048 -2.1468086 -0.008387232 0.7561379 -2.1404665
1.2169889 0.15483718 0.15802054 1.725526 -0.3497237 -1.5929867 -1.588822 0.3927454
1.2036285 -1.4873618 -0.9272466 -1.7084146 -0.54350215 0.60488087 -0.15892082 -1.1502863
0.118066385 0.97999525 1.040446 -1.0671314 -0.72541153 0.54884964 0.81800133 0.09876386
1.6869115 -0.8820949 -1.8733438 -0.16563271 0.8891266 1.583334 -1.5150143 -1.7810495
00000000: b15d f23e 04b9 4a3f e2a1 ce3e d8c4 1e3f
00000010: ead5 7cbf a8c3 693f 0584 4cbd a1a6 2bbd
00000020: 49ad bc3e 8028 213f 32c7 903e f0d4 433f
00000030: d4c8 9abf e5b4 cb3f 812a d83f a450 36bf
00000040: f61d a5bf 95e4 c03f b892 d83e 944f abbf
00000050: 535c 11c0 a773 22c0 98a7 cbbf 1d96 193f
00000060: 5f42 3ec0 92aa 18c0 643c 333f 8350 bdbd
00000070: 25d6 debf 44dc 9f3e 3b31 033e 06bd 30c0
00000080: 72ba 673f 1665 303f 01b9 1c3f a7f0 813f
00000090: 15ae 27bf 47aa 04c0 b956 eabf bbd3 1bbf
000000a0: 4cf8 343f d53b 27c0 7b8a b5bf 3b12 d5bf
000000b0: f964 ccbf 91d5 363f 4136 293f 781f 0cc0
000000c0: dfac da3f c595 d03e 78cc 0a3f 76b1 d9bf
000000d0: 63fe 01be a8c8 a13e 502b b33f d0ce 803e
000000e0: 1286 be3f 7801 babf a1e6 b9bf 8437 a4be
000000f0: 72fd bb3f a368 993e 71ab e4bf 89ea f8bf
00000100: 3017 86bf e8d6 89bf f510 e2bd 01cc 61bf
00000110: f01a dd3e a116 2abf 264b 2d3e 798a 24bf
00000120: 423b 9bbf b004 d3be dbfe 8dbf c279 10bf
00000130: 104f 163f decf 96bf ef79 adbe ef5e ad3e
00000140: 869f 003f 1ecc f0be 2e7c d5be cd11 7d3f
00000150: d85c 1a3e c110 1c3f 81b4 523f f5ff 14bf
00000160: c0d4 c63f f6a0 0b3e 9988 18bf b8c8 f3be
00000170: 74a5 073f e971 2cbf 4088 74be 0e9c 253f
00000180: 96b7 32be 4aa7 d8be 2600 dabe 7210 2fbf
00000190: 4bab 8bbd f459 173f b1c0 893e 4d71 43bf
000001a0: 875c 72bf 0f75 3d3f a25c 8e3f a0b3 1c3e
000001b0: 4ba2 783e 112a e2be 8f5e f4be 3be0 173d
000001c0: ac62 61bf def0 1bbe 6ea9 bebf a7a2 1f3f
000001d0: eb24 78be 196e 0fbc 0258 1ebf a9ed ad3d
000001e0: 0fc9 68be 00d3 d93e 4a98 063f bb47 55be
000001f0: 1110 d9be 6587 d5be f5c0 063f e5c6 a03f
00000200: 4ebb e63f 665c 5e3e 7522 98bf 01f6 813e
00000210: 6973 18be d36e eb3e 500a 093d cb0c 2a3f
00000220: 2d12 633f 1aef 06bf abee ee3f 73ff 8c3f
00000230: 7b62 52bf cc7a a93e 86b4 553f 9b52 36bf
00000240: 6964 1cbf d149 713f 8dbe 703f 5425 16c0
00000250: 418e 8ebf 92c9 23c0 b72c a6bf 0f62 cb3e
00000260: af97 44c0 a644 81bf 38c0 313f cfed a7bf
00000270: 4bab 1ebf 3bf5 363f c1f1 69bf cb0c f6bf
00000280: 1c87 b63f 416f a33f a4ea 913f 312d 393f
00000290: 3a35 36bf 0dcf 2bbf 5dd3 7fbf 91c4 613f
000002a0: 277b 723f 92ef 98be 76a2 f5bf 769e 92bf
000002b0: f34f 89bf 7abb 313f 10ea 3a3f fbbc 61bf
000002c0: 2eb0 6e3f 323d 363f 6243 853f f781 62bf
000002d0: fa2f bb3e 2a1e 393f 3018 933f c842 453f
000002e0: e101 9c3e cffc 52bf 772f b9bf f436 54bf
000002f0: 21bd 473f 1cfd 2c3f a2e3 a2bf 3f02 2bc0
00000300: c176 843f 34b3 cc3f 9695 a83e 7a9f 203f
00000310: 93f8 75bf ba69 683f a056 c73d a0e1 333f
00000320: dfc8 223f 5078 92bf 035b 92be 5b96 033f
00000330: 38c0 66bf bc6d da3e 5997 803f 102c 8dbe
00000340: e204 f4bf 75c6 3e3f 9104 8dbe 4527 d2bf
00000350: fc81 bfbf da08 bbbf b733 0ac0 25ce cbbd
00000360: 9640 18c0 31d8 dfbf 869f d73f 8b7f b93f
00000370: 5065 09c0 9a6a 09bc 4192 413f 67fd 08c0
00000380: 4bc6 9b3f a38d 1e3e 23d0 213e 09de dc3f
00000390: fc0e b3be fde6 cbbf 855e cbbf ed15 c93e
000003a0: 8010 9a3f df61 bebf 0860 6dbf 54ad dabf
000003b0: f522 0bbf 79d9 1a3f 24bc 22be 953c 93bf
000003c0: cacc f13d f8e0 7a3f 562d 853f c397 88bf
000003d0: 92b4 39bf 6981 0c3f 8968 513f b544 ca3d
000003e0: b7ec d73f f9d0 61bf bbc9 efbf 9f9b 29be
000003f0: cd9d 633f b0aa ca3f fdeb c1bf 6ef9 e3bf

arith.constant4 f4 [64, 128]
-0.038725447 0.23055638 0.13904 -0.5476594 -0.119137116 -0.63480407 -0.5134757 0.68419194
-1.8641742 -0.30852908 -0.12224828 -0.06059814 -0.049490634 -0.33082086 1.4073182 -0.46716645
-0.023267161 1.1111469 0.34234044 0.42993408 -1.6631786 2.0093064 -0.9656787 -0.31409857
-0.36490014 -0.56847405 -1.7809371 -0.42145708 0.093870655 0.15963562 0.44700804 -0.44711646
0.9088166 0.80486834 0.70803857 -2.1410596 -1.1881969 0.21415439 -0.85610163 -0.93093103
-0.8888302 0.35011074 -2.0681293 -0.34350762 -0.31519595 0.30009183 2.4575155 0.5415879
0.3217369 -1.9985095 -0.8550364 0.2753221 -1.2143469 -2.1093898 0.13685787 1.5501113
-0.3982353 0.23051155 1.2541927 0.30047923 -0.76081103 0.8889166 -0.2438778 1.2378888
0.5073981 -1.3022058 -0.66204387 0.6767612 0.4726651 0.6508445 -2.279356 -1.6305423
0.13739538 0.07512645 -0.6774826 0.31834376 -1.8692904 2.5211427 0.6980204 -0.5615134
-0.06877614 0.059470106 -0.41933814 -1.1777949 0.7272571 0.19633284 0.28569227 1.0554894
-1.8871449 0.20189813 -0.53509617 -0.66721475 -2.034632 -0.355339 -0.13194665 0.08008684
-1.2783955 0.033623595 1.1032848 1.0085557 -1.2328928 0.52108634 -0.27688754 -0.17460172
-0.42698985 0.0972325 -0.17991704 0.08104035 0.9350436 -0.7642796 0.45108578 -6.1212025
0.94801265 -1.2021354 -0.12358993 -1.5072097 1.3736008 -2.00065 -1.5316246 1.6002363
0.46458888 -1.4876362 -1.6122935 -1.9011464 -1.4132626 0.25128835 -0.113705635 -0.10030854
-0.26069596 1.0619419 -0.8042074 0.90106416 -2.213733 0.8727349 0.13156547 -1.5708181
0.09335632 -0.408965 -3.9332707 -1.0020533 -0.8032839 -0.52867913 -2.7635093 0.6793035
0.19515099 0.4058737 -0.7069749 0.800708 1.2285881 -0.05784318 0.33979428 0.11332199
-1.7168134 0.47183856 -0.55758804 0.026344355 -0.32126814 -0.0023357188 -0.2597983 -0.62765896
-0.690495 0.2699626 1.907608 2.054054 -0.74217427 0.47530717 0.4528431 -0.9164051
0.23936945 -2.0739594 -2.3193688 -0.2883865 -1.4039923 0.09093885 4.918445 0.62675905
-0.7238007 0.17522429 -1.1147821 0.40621576 -0.784945 -1.1198133 0.5043159 2.091774
-0.6614351 0.12508032 -0.87777543 1.5604295 0.46947315 -0.96784186 -2.1482558 1.4582994
-1.0829867 -0.4875372 -1.3419144 -0.59611464 -1.0017724 0.14134046 0.866524 2.406588
0.4856186 -1.697493 0.74686563 0.965957 0.43433297 0.6145747 1.330875 0.36847258
0.25936502 1.5695416 -1.0362256 -0.21941169 -0.55003095 0.65261674 -1.8677304 0.50736165
-1.3938862 0.3809098 -0.49582648 0.06387427 -1.9160789 -1.2400906 -0.9917602 -1.141793
-0.027103249 -0.8975544 -0.5600976 -1.3844829 -0.7493768 -2.363671 -0.4298978 -0.42263946
-0.35757303 -0.40858015 -1.0047659 0.5022105 -0.11427117 -1.1608512 -0.637696 -2.6148891
-1.8609023 0.4385729 -0.046235766 0.93000156 -1.5943741 1.8757262 -0.48461536 -0.703971
-1.2480946 0.49295953 0.034835253 0.32151896 0.5686665 -1.2342913 0.53317624 -2.181173
00000000: 939e 1ebd f916 6c3e 8060 0e3e 6833 0cbf
00000010: 29fe f3bd 8582 22bf 2573 03bf 3427 2f3f
00000020: 439d eebf 86f7 9dbe 4e5d fabd c135 78bd
00000030: b1b6 4abd 5a61 a9be 0123 b43f 7130 efbe
00000040: c69a bebc 103a 8e3f 3f47 af3e 5220 dc3e
00000050: 09e3 d4bf 7a98 0040 b836 77bf 87d1 a0be
00000060: 31d4 babe 8487 11bf bff5 e3bf 39c9 d7be
00000070: 423f c03d 8577 233e 3dde e43e 73ec e4be
00000080: 34a8 683f da0b 4e3f 0442 353f 1f07 09c0
00000090: d616 98bf 4a4b 5b3e 7a29 5bbf 7f51 6ebf
000000a0: 608a 63bf b741 b33e 3b5c 04c0 3be0 afbe
000000b0: 5d61 a1be a3a5 993e ef47 1d40 81a5 0a3f
000000c0: b3ba a43e 29cf ffbf aae3 5abf 05f7 8c3e
000000d0: b86f 9bbf 3e00 07c0 7824 0c3e 0c6a c63f
000000e0: 7fe5 cbbe 380b 6c3e 6389 a03f 6ad8 993e
000000f0: 83c4 42bf 0a90 633f 1abb 79be 2473 9e3f
00000100: d8e4 013f aeae a6bf b57b 29bf 3940 2d3f
00000110: 2901 f23e bf9d 263f f8e0 11c0 9cb5 d0bf
00000120: 60b1 0c3e e5db 993d 806f 2dbf f4fd a23e
00000130: e844 efbf 675a 2140 77b1 323f 58bf 0fbf
00000140: 81da 8cbd ed96 733d 7db3 d6be fcc1 96bf
00000150: 852d 3a3f 7a0b 493e 4246 923e 471a 873f
00000160: f78d f1bf 62be 4e3e 10fc 08bf 96ce 2abf
00000170: 6937 02c0 feee b5be 061d 07be 9204 a43d
00000180: 77a2 a3bf e5b8 093d 7038 8d3f 5a18 813f
00000190: 6ecf 9dbf ea65 053f 34c4 8dbe cbca 32be
000001a0: 6a9e dabe d521 c73d 2c3c 38be 7cf8 a53d
000001b0: 045f 6f3f d4a7 43bf b7f4 e63e e4e0 c3c0
000001c0: f5b0 723f 93df 99bf b81c fdbd 3fec c0bf
000001d0: 27d2 af3f a60a 00c0 460c c4bf 8bd4 cc3f
000001e0: 98de ed3e dd6a bebf a25f cebf c458 f3bf
000001f0: cae5 b4bf dea8 803e 80de e8bd 906e cdbd
00000200: f179 85be b6ed 873f 89e0 4dbf 24ac 663f
00000210: cdad 0dc0 8e6b 5f3f 19b9 063e 9110 c9bf
00000220: 9931 bf3d dc63 d1be b5ba 7bc0 4843 80bf
00000230: 03a4 4dbf 8457 07bf 56dd 30c0 d6e6 2d3f
00000240: a9d5 473e adce cf3e 4ffc 34bf 33fb 4c3f
00000250: 6042 9d3f f8ec 6cbd 84f9 ad3e 5c15 e83d
00000260: 8bc0 dbbf d394 f13e 17be 0ebf 1ed0 d73c
00000270: 427d a4be dc12 19bb 4804 85be 42ae 20bf
00000280: 48c4 30bf 8a38 8a3e 802c f43f 9f75 0340
00000290: 22ff 3dbf 765b f33e 0ddb e73e 8699 6abf
000002a0: 441d 753e c0bb 04c0 8a70 14c0 65a7 93be
000002b0: 05b6 b3bf 263e ba3d e763 9d40 4873 203f
000002c0: 014b 39bf ff6d 333e 2eb1 8ebf 83fb cf3e
000002d0: 28f2 48bf 0b56 8fbf d91a 013f a0df 0540
000002e0: d053 29bf 0e15 003e e4b5 60bf 27bc c73f
000002f0: c95e f03e 7cc4 77bf 067d 09c0 8ea9 ba3f
00000300: 4f9f 8abf 7a9e f9be dac3 abbf f89a 18bf
00000310: 143a 80bf 8ebb 103e 84d4 5d3f 8a05 1a40
00000320: 00a3 f83e 7347 d9bf 9632 3f3f f548 773f
00000330: e460 de3e c454 1d3f 1d5a aa3f 70a8 bc3e
00000340: 7ecb 843e bde6 c83f 0aa3 84bf 75ad 60be
00000350: d4ce 0cbf e411 273f ca11 efbf 74e2 013f
00000360: dd6a b2bf 9c06 c33e f8dc fdbe 83d0 823d
00000370: 1342 f5bf 4abb 9ebf ffe3 7dbf 4626 92bf
00000380: a207 debc 20c6 65bf 8e62 0fbf bc36 b1bf
00000390: 28d7 3fbf 6346 17c0 901b dcbe 3364 d8be
000003a0: d013 b7be 6b31 d1be 2b9c 80bf de90 003f
000003b0: 0107 eabd c696 94bf 0c40 23bf 585a 27c0
000003c0: 0c32 eebf a18c e03e b761 3dbd 9514 6e3f
000003d0: 7314 ccbf cc17 f03f 811f f8be 7237 34bf
000003e0: 90c1 9fbf 3165 fc3e 69af 0e3d 229e a43e
000003f0: 2194 113f 42fd 9dbf 3d7e 083f 5798 0bc0

arith.constant6 f4 [8]
0.049984854 3.691874 -4.842293 1.9201661 0.19964676 1.6335458 3.7970147 -3.9854238
00000000: ebbc 4c3d aa47 6c40 10f4 9ac0 01c8 f53f
00000010: 3370 4c3e 0718 d13f 4a02 7340 2f11 7fc0

arith.constant7 f4 [16]
2.7970598 -2.395178 -0.39931992 -2.0632746 -1.1332549 -1.509515 -0.1573523 3.729289
-1.3684454 -1.5915368 0.02467187 0.22936809 -1.4349455 -1.750979 -1.0414357 0.044956967
00000000: 0703 3340 994a 19c0 a973 ccbe b10c 04c0
00000010: 7f0e 91bf ca37 c1bf f620 21be acac 6e40
00000020: 3829 afbf 7ab7 cbbf a91c ca3c 78df 6a3e
00000030: 4bac b7bf 1420 e0bf c44d 85bf cc24 383d

arith.constant8 f4 [32]
0.22479089 0.053101446 -2.3556316 -1.5451568 1.9318234 0.1334945 -0.0827436 -2.573763
-2.6891017 1.0593858 -2.9338756 0.99599344 0.5306837 0.14446217 0.17157423 -0.39878982
2.0566835 -1.3344157 -1.1602315 0.3077998 0.055991974 0.57477665 0.32510144 -1.7381376
-2.340484 0.3585029 -0.042729184 0.60520726 -0.7388087 -0.7237059 -0.014458164 -1.9329805
00000000: 952f 663e e780 593d abc2 16c0 b3c7 c5bf
00000010: fd45 f73f c8b2 083e 7a75 a9bd 88b8 24c0
00000020: 3e1a 2cc0 f499 873f 9ec4 3bc0 6df9 7e3f
00000030: e3da 073f e4ed 133e 28b1 2f3e 2e2e ccbe
00000040: b4a0 0340 22ce aabf 7782 94bf ef97 9d3e
00000050: d757 653d 9024 133f b273 a63e 4b7b debf
00000060: 7dca 15c0 b18d b73e cc04 2fbd ddee 1a3f
00000070: 9122 3dbf ca44 39bf efe1 6cbc e86b f7bf

sequential_1/dense_1_2/BiasAdd/ReadVariableOp f4 [64]
-0.38001293 -1.455686 -3.038927 1.2962142 -1.567357 1.7340494 -0.118685886 -1.1400787
-2.5979974 1.5021459 -2.0947285 0.9674094 -2.3956003 -1.6926376 0.7569178 -2.054019
0.16517082 -0.9114549 -0.39908004 0.2918091 1.1021689 0.3959446 0.02292172 -1.2548803
0.84764105 0.66314 -1.9821621 -1.4210069 0.27247232 -0.60388345 -1.9174006 0.6045969
0.47669333 -0.36191282 0.8973241 -1.179382 -1.3791497 0.40100673 0.8162015 -1.4837031
-1.052134 0.16971323 0.28980717 1.0764867 -0.6355264 0.3831526 -0.5941169 0.5201729
-1.1279851 -1.9826982 -0.6289797 0.8121861 -0.655967 -1.5339066 -0.24987154 0.3647242
0.3062675 0.79423195 0.6740193 -3.942358 -0.013829598 1.5153422 0.19616677 -0.24794924
00000000: 0e91 c2be eb53 babf c87d 42c0 59ea a53f
00000010: 279f c8bf 55f5 dd3f 9611 f3bd 19ee 91bf
00000020: 9745 26c0 5146 c03f 0810 06c0 24a8 773f
00000030: 8451 19c0 59a8 d8bf 5dc5 413f 0c75 03c0
00000040: 8a22 293e 1c55 69bf 3854 ccbe 0168 953e
00000050: df13 8d3f 40b9 ca3e 55c6 bb3c eb9f a0bf
00000060: 01ff 583f 8bc3 293f 7db7 fdbf 8ee3 b5bf
00000070: 7e81 8b3e 1b98 1abf 626d f5bf ddc6 1a3f
00000080: 2611 f43e a34c b9be 08b7 653f fdf5 96bf
00000090: fa87 b0bf c150 cd3e 95f2 503f fce9 bdbf
000000a0: 54ac 86bf 4ec9 2d3e 9b61 943e 51ca 893f
000000b0: dcb1 22bf 942c c43e 0c18 18bf 0d2a 053f
000000c0: d161 90bf 0ec9 fdbf d004 21bf 6eeb 4f3f
000000d0: 74ed 27bf 0d57 c4bf 53de 7fbe 21bd ba3e
000000e0: 18cf 9c3e c952 4b3f 878c 2c3f 984f 7cc0
000000f0: 8a95 62bc bcf6 c13f f1df 483e 68e6 7dbe

sequential_1/dense_1/BiasAdd/ReadVariableOp f4 [128]
-2.5498314 -2.6785643 -2.0627382 -2.2969165 -2.0894597 -3.1728563 -2.4730256 -3.2873564
-2.1474068 -3.0054374 -0.22129473 -2.5836866 -1.9334652 -2.5299006 -0.83416605 -1.4354141
-0.4936682 -4.1183386 -2.163193 -3.4870846 -3.1200073 -0.70670426 -3.5433445 -2.0895574
-1.5678593 -2.3394659 -2.7095926 -1.2821474 -3.6211185 -2.335957 -2.9440105 -3.8724666
-3.5938034 -2.4642951 -2.9762108 -1.6736689 -0.8616696 -5.03497 -3.456825 -1.6516521
-1.8813916 -2.6460826 -3.774446 -2.3442194 -2.559624 -3.0835893 -3.331037 -3.6480598
-2.1576295 -1.782415 -1.3257942 -2.6028209 -3.0586755 -1.9533076 -0.13151625 -3.7488952
-2.2203166 -3.181564 -2.6714082 -2.653808 -1.4075724 -1.5459505 -1.6391884 -2.6089058
-3.23218 -1.7832386 -2.7406893 -2.6962924 -3.7700903 -3.7092967 -3.0707986 -2.2182457
-2.8305764 -0.3426469 -2.1249285 -2.8541625 -3.189449 -2.298616 -2.7057896 -1.8729208
-2.7314422 -2.6901374 -1.8677651 -2.8997247 -3.7289133 -2.4784186 -1.7936072 -4.6516004
-0.6764932 -2.7287352 -2.479419 -2.9862268 -1.3201486 -3.3771062 -1.2345396 -1.2184087
-2.556413 -2.4370043 -1.7902267 -2.643053 -0.4818929 -1.4177334 -2.4248185 -3.4864724
-3.3280344 -0.81579405 -3.2685325 -3.7952368 -3.130341 -1.5315475 -3.0029416 -1.1474342
-2.5555294 -2.3161013 -0.08791573 -1.5548112 -1.8481493 -2.7786453 -2.72206 -3.0036883
-1.623621 -3.541738 -3.0234683 -2.0960705 -2.5980718 -1.9295945 -0.89957076 -2.4353802
00000000: 7030 23c0 996d 2bc0 e703 04c0 ae00 13c0
00000010: b5b9 05c0 1410 4bc0 0d46 1ec0 0c64 52c0
00000020: 1d6f 09c0 1659 40c0 169b 62be 1f5b 25c0
00000030: ca7b f7bf e4e9 21c0 e88b 55bf a6bb b7bf
00000040: 14c2 fcbe 6ec9 83c0 c171 0ac0 652c 5fc0
00000050: 33ae 47c0 92ea 34bf 28c6 62c0 4fbb 05c0
00000060: 9daf c8bf cfb9 15c0 f769 2dc0 681d a4bf
00000070: 68c0 67c0 5280 15c0 ab6a 3cc0 7ed6 77c0
00000080: e000 66c0 03b7 1dc0 3d7a 3ec0 c83a d6bf
00000090: 6196 5cbf 791e a1c0 9f3c 5dc0 5669 d3bf
000000a0: 71d1 f0bf 6b59 29c0 8690 71c0 b107 16c0
000000b0: e1d0 23c0 8759 45c0 b62f 55c0 d079 69c0
000000c0: 9a16 0ac0 2d26 e4bf a0b3 a9bf 9e94 26c0
000000d0: 57c1 43c0 fc05 fabf 32ac 06be e6ed 6fc0
000000e0: ab19 0ec0 bf9e 4bc0 5af8 2ac0 fed7 29c0
000000f0: 552b b4bf b5e1 c5bf edd0 d1bf 50f8 26c0
00000100: 0adc 4ec0 2a41 e4bf 7467 2fc0 0e90 2cc0
00000110: 2949 71c0 1e65 6dc0 f787 44c0 bdf7 0dc0
00000120: 2a28 35c0 6a6f afbe d4fe 07c0 99aa 36c0
00000130: ef1f 4cc0 861c 13c0 a82b 2dc0 debb efbf
00000140: f3cf 2ec0 362b 2cc0 ed12 efbf 1795 39c0
00000150: 84a6 6ec0 699e 1ec0 ec94 e5bf e9d9 94c0
00000160: a92e 2dbf 99a3 2ec0 cdae 1ec0 571e 3fc0
00000170: a1fa a8bf 8222 58c0 6505 9ebf d1f4 9bbf
00000180: 459c 23c0 e1f7 1bc0 2626 e5bf c827 29c0
00000190: abba f6be 4a78 b5bf 3a30 1bc0 5d22 5fc0
000001a0: 84fe 54c0 e1d7 50bf a32f 51c0 29e5 72c0
000001b0: 8257 48c0 c009 c4bf 3230 40c0 20df 92bf
000001c0: cb8d 23c0 013b 14c0 2a0d b4bd 0e04 c7bf
000001d0: 2890 ecbf 53d5 31c0 3b36 2ec0 6e3c 40c0
000001e0: d0d2 cfbf d6ab 62c0 8180 41c0 0526 06c0
000001f0: cf46 26c0 f4fc f6bf 454a 66bf 45dd 1bc0

sequential_1/dense_1/MatMul f4 [128, 41]
0.84832084 -0.4480144 -0.24959962 0.23928995 -0.692282 0.8776061 0.0026762923 -0.94248885
-0.26839563 -0.3646335 0.7569424 -0.6144058 -0.07480349 -0.21769325 -0.35580522 -0.82939994
-0.93409413 0.029876353 -1.5126344 -0.038141023 -0.3330852 -0.30908218 0.5913091 -0.34768164
-0.023524517 0.09825456 0.5732622 -0.15030634 1.5402598 -0.6188008 -1.8454164 0.787072
0.4702917 -1.5181199 0.3646938 -0.27578965 0.7852254 -1.2932276 0.3159686 0.8597489
-0.26369163 -0.07547709 -0.05884362 0.192718 0.6686655 -0.79164326 -0.16636723 1.0517668
-0.6097264 0.2126146 -0.49618906 -0.8224985 -0.17178904 -0.06759289 1.6214727 0.26918793
0.28979257 0.16120788 0.19612549 0.31175762 -1.14827 0.075915694 -0.46522042 -0.98877394
-0.41815674 0.16831428 0.6963798 -1.3628379 -0.6032162 -0.43212736 0.08846178 -0.08939248
0.46438196 0.2957766 -0.33651036 1.6467279 0.5908474 0.342592 -1.2734727 0.5304615
0.50944996 0.42544076 -1.2280564 0.39276367 -0.014686899 1.0063437 -0.78386384 -0.6283095
-2.359729 -0.5384709 0.23707375 0.52896833 -0.7368628 -0.39787805 -0.50036544 -1.3751353
0.55545825 -0.077289045 0.99207395 0.1096445 -0.99159145 0.3403019 0.43972212 0.39746314
-0.62346303 -0.47231904 0.35754463 -0.12249026 -0.40023172 -0.85116506 0.1095819 0.54348874
1.3613244 0.8331155 -0.76461184 0.35176373 -0.36265203 0.09553633 1.2878226 0.08511973
-0.9447043 0.5225653 0.04041269 -0.2752949 0.6531943 0.4453054 0.023716385 0.54753363
-0.115725644 -0.45160854 -1.2576096 0.2936636 -0.03526104 0.4711334 0.17093347 1.1223536
-0.8287269 -0.36864877 -0.44181174 -0.2759216 0.33372012 -0.29892537 -0.5964026 0.3966221
-0.0014893082 0.60076576 0.0075615942 -0.5681707 1.1527857 0.93232524 -0.49062568 -0.17617142
0.032120742 -1.4905112 -0.24304086 0.15108857 -0.4651074 -0.11677585 -0.98240227 0.32147083
1.1834708 -0.4081738 0.6376348 1.2962831 0.9350482 -0.04868569 -0.03127507 -0.22751044
0.5700841 -0.3954877 0.5730872 0.20390521 0.35081843 -0.27005863 0.3570355 -0.36564228
-0.16809766 -0.30613604 0.22133389 0.87878805 -0.06342814 -0.2324695 0.582052 0.17067376
0.26208943 -0.26173875 0.49363667 -0.5415729 0.25994036 0.26838815 -0.1128817 0.014026716
0.09127194 -0.028126927 -1.0483984 -1.3882831 -0.063349046 -1.7100451 0.36871082 0.47700998
-0.79710203 0.8449653 -0.6764266 -0.65246147 0.047352288 -0.99734014 0.8605453 -0.17392989
-0.50015014 -0.812522 0.32427567 -0.3740064 1.7446297 0.47915968 0.8678923 1.5919178
-0.29853827 -0.3706557 -0.21837808 -0.088370495 1.8646585 -0.4497547 0.015384818 0.96882343
-0.58678424 0.44190618 0.59263474 1.4624946 -0.49457556 -0.00022000603 -0.3051772 -0.20542592
-0.15554062 -0.3077333 0.20699805 -0.14053129 0.8571602 -0.25958863 0.5613569 -0.16867717
-0.48159483 0.4543757 -1.1227801 -1.067349 -1.2304496 -0.4376199 1.5482563 -1.134527
-0.69424707 0.5134033 -0.99184257 0.09931293 0.24440943 0.8705429 -0.09924127 0.7610339
00000000: 8e2b 593f 2562 e5be 0b97 7fbe 6d08 753e
00000010: 6539 31bf cbaa 603f bc64 2f3b f346 71bf
00000020: 276b 89be 3eb1 babe fac6 413f b349 1dbf
00000030: 9232 99bd fbea 5ebe 1a2c b6be 8e53 54bf
00000040: cb20 6fbf 41bf f43c 019e c1bf c339 1cbd
00000050: 258a aabe 0540 9ebe 0860 173f 5403 b2be
00000060: 7db6 c0bc b039 c93d 50c1 123f e8e9 19be
00000070: 3c27 c53f bb69 1ebf 9b36 ecbf 8d7d 493f
00000080: 13ca f03e c151 c2bf 25b9 ba3e 4d34 8dbe
00000090: 8804 493f 7b88 a5bf a3c6 a13e 8118 5c3f
000000a0: 9702 87be bc93 9abd 0206 71bd de57 453e
000000b0: aa2d 2b3f 22a9 4abf 2c5c 2abe 4ba0 863f
000000c0: 0817 1cbf a4b7 593e 7e0c febe 438f 52bf
000000d0: 77e9 2fbe 246e 8abd 6b8c cf3f 00d3 893e
000000e0: b15f 943e ae13 253e 1fd5 483e b29e 9f3e
000000f0: 83fa 92bf b079 9b3d 5f31 eebe 4a20 7dbf
00000100: a418 d6be 945a 2c3e f245 323f 7971 aebf
00000110: 606c 1abf cc3f ddbe 732b b53d 6813 b7bd
00000120: 79c3 ed3e 0870 973e 164b acbe fbc7 d23f
00000130: c641 173f 3868 af3e 2701 a3bf 53cc 073f
00000140: 506b 023f 5fd3 d93e f430 9dbf 5218 c93e
00000150: 52a1 70bc dfcf 803f 4dab 48bf e4d8 20bf
00000160: cd05 17c0 3bd9 09bf 76c3 723e 786a 073f
00000170: 0aa3 3cbf acb6 cbbe f317 00bf 6f04 b0bf
00000180: 8332 0e3f b849 9ebd 8ff8 7d3f 4c8d e03d
00000190: f0d8 7dbf 0d3c ae3e 4223 e13e 4a80 cb3e
000001a0: 469b 1fbf cdd3 f1be 1710 b73e 2cdc fabd
000001b0: 2ceb ccbe f4e5 59bf 7a6c e03d 1422 0b3f
000001c0: e13f ae3f 0f47 553f 9abd 43bf 601a b43e
000001d0: 87ad b9be 8da8 c33d 5fd7 a43f 4153 ae3d
000001e0: 24d8 71bf d7c6 053f c787 253d 74f3 8cbe
000001f0: be37 273f 12ff e33e dd48 c23c 2a2b 0c3f
00000200: 9101 edbd 3c39 e7be 5af9 a0bf 135b 963e
00000210: e16d 10bd 6638 f13e 2f09 2f3e 48a9 8f3f
00000220: 7227 54bf 88bf bcbe 2635 e2be 9945 8dbe
00000230: 5ddd aa3e bf0c 99be d7ad 18bf 0d12 cb3e
00000240: e434 c3ba c9cb 193f 40c7 f73b a373 11bf
00000250: 7b8e 933f deac 6e3f 4a33 fbbe 4866 34be
00000260: 0a91 033d 12c9 bebf b4df 78be f6b6 1a3e
00000270: 8f22 eebe 2d28 efbd b77e 7bbf d397 a43e
00000280: f97b 973f 28fc d0be 093c 233f 9bec a53f
00000290: 525f 6f3f a56a 47bd 4a1a 00bd 7ff8 68be
000002a0: 08f1 113f 5d7d cabe d8b5 123f 87cc 503e
000002b0: 799e b33e 2045 8abe 5bcd b63e 7735 bbbe
000002c0: cb21 2cbe ddbd 9cbe 5aa5 623e 41f8 603f
000002d0: 9de6 81bd 7c0c 6ebe 5c01 153f 1ac5 2e3e
000002e0: 9630 863e 9f02 86be f2bd fc3e 86a4 0abf
000002f0: e716 853e 2c6a 893e 852e e7bd 50d0 653c
00000300: c8ec ba3d 716a e6bc eb31 86bf 43b3 b1bf
00000310: 25bd 81bd c2e2 dabf aac7 bc3e a73a f43e
00000320: e10e 4cbf a54f 583f 4b2a 2dbf b707 27bf
00000330: 79f4 413d af51 7fbf b24c 5c3f ad1a 32be
00000340: d709 00bf 7101 50bf 7607 a63e c47d bfbe
00000350: 0750 df3f 6b54 f53e 312e 5e3f f6c3 cb3f
00000360: 02da 98be 95c6 bdbe 819e 5fbe 97fb b4bd
00000370: 21ad ee3f 3f46 e6be 9b10 7c3c d004 783f
00000380: 7e37 16bf 8741 e23e e9b6 173f 0633 bb3f
00000390: 0239 fdbe 6bb1 66b9 3040 9cbe 2c5b 52be
000003a0: 0a46 1fbe 388f 9dbe 4cf7 533e 6fe7 0fbe
000003b0: da6e 5b3f cde8 84be 16b5 0f3f b5b9 2cbe
000003c0: 9993 f6be efa3 e83e 42b7 8fbf e49e 88bf
000003d0: 5f7f 9dbf b70f e0be 432d c63f 2e38 91bf
000003e0: 2dba 31bf 666e 033f 65e9 7dbf 9464 cb3d
000003f0: 7746 7a3e e6db 5e3f 023f cbbd 1ed3 423f
